assets/206Model.tflite (tflite, 2664 bytes, 5 tensors)

dense_4/bias f4 [8]
00000000: 843d cdbd f1cd 81be 46de 4cbd 2bc4 79bd
00000010: 2f31 3bbd 92a2 223e 0185 20be b217 4cbd
-0.10021499 -0.25352433 -0.050016664 -0.060978096 -0.045701202 0.15882328 -0.15675737 -0.049827285

dense_3/bias f4 [10]
00000000: 32e9 cdbd d429 b43e 2f93 bcbb bb8f 413d
00000010: cfe9 473e 2dd2 b33e b863 953c 6ab8 103c
00000020: 448a d73d 0155 993d
-0.10054244 0.35188162 -0.0057548503 0.047256213 0.19522785 0.3512129 0.018236026 0.00883303
0.10524419 0.07486916

sequential_1/dense_3/MatMul f4 [10, 10]
00000000: 87fd 753c 2b75 79bf 8108 0f3f 5511 cabe
00000010: f639 14be f95e 65bf b6aa 0dbf 6246 d8be
00000020: 7a09 0cbe a1ae d9bb 7921 4fbe c950 2bbf
00000030: b0f5 263e 2c2b 2d3e 4909 4a3f a54d d3be
00000040: 510f 5a3d 68c8 b53e eb5d 543f 58b3 a53f
00000050: a8ab 3c3f 2e02 823f 2bed a03e 0b23 35bf
00000060: 2f5a 0dbf 4c56 e43d ad36 703b 9067 0a3f
00000070: 50bc 4e3d 23c8 67be 35ef 73be 9aea 4bbf
00000080: 7fa4 8abe 7e3f 90be ab8a 18be 4f19 97be
00000090: fa66 61bf bf1c 733f a3e4 0bbf 789a 0c3f
000000a0: afe8 8cbf d5b7 46bf cad5 033f f7fb 8f3e
000000b0: dfec 743f 3649 023d c6ee fbbe 98ca 01bf
000000c0: 6a03 7cbe 37d1 153f bd6f 9c3d 31de 473f
000000d0: 2675 383f 7f89 d4bc 2a7c 12bf cdb5 5a3f
000000e0: 38cf 8b3f 8870 7e3f 7874 113e 5263 cc3e
000000f0: 738b 903f 6afd 4dbe 02d7 05bf d383 abbe
00000100: 02c3 4dbf 94b9 5d3e 8d64 113d 08c3 3dbf
00000110: c6d8 1cbf c206 513f 5626 3fbf c9d3 223e
00000120: fb91 b4be 9e87 aebd a984 4c3d 09fd 86be
00000130: 515b a83e 05df 8ebe 6495 72be 6e19 84be
00000140: 97f5 203f 6984 213f 1b60 df3e 6aae a0be
00000150: 5e14 673e d563 b83e 80df 913f 8b15 14bf
00000160: 73f7 ef3e 66dc f13e aa57 d5be c1a6 7f3f
00000170: 4931 d3be 79a9 833e 06e2 a73d 1411 29bf
00000180: aff6 873f 0d67 593e 406d b13e 93eb 993e
0.015014059 -0.9744441 0.5587235 -0.39466348 -0.14475235 -0.8959804 -0.5533861 -0.42241198
-0.1367549 -0.006643132 -0.20227613 -0.66920143 0.1630466 0.16911 0.7892042 -0.41270176
0.053237263 0.3550446 0.8295581 1.2945356 0.73699427 1.0156915 0.31430945 -0.70756596
-0.55215734 0.11149272 0.0036653683 0.54064274 0.050472558 -0.2263494 -0.23821719 -0.7965485
-0.27078626 -0.2817344 -0.14896648 -0.29511496 -0.88047755 0.9496574 -0.54645747 0.549232
-1.1008509 -0.77624255 0.5149809 0.2812192 0.95673937 0.0318081 -0.49205607 -0.5069976
-0.24610677 0.5852236 0.076385 0.7807341 0.72053754 -0.02594447 -0.5722071 0.85433656
1.0922613 0.9939046 0.14204586 0.39919525 1.1292557 -0.20116201 -0.522812 -0.3349901
-0.80375683 0.21652824 0.035496283 -0.7412572 -0.6126827 0.81650937 -0.7466787 0.15901102
-0.35267624 -0.08521961 0.049931202 -0.26364926 0.3288217 -0.27904525 -0.236898 -0.2580065
0.6287474 0.63092667 0.4362801 -0.31383067 0.22566363 0.36013666 1.1396332 -0.5784537
0.46868476 0.47238463 -0.41668445 0.9986382 -0.4124854 0.25715235 0.081974074 -0.66041684
1.0622157 0.21230717 0.34653664 0.3006254

sequential_1/dense_4/MatMul f4 [8, 10]
00000000: 2bd0 323e 6085 0f3f c24b b6bc 9357 f93e
00000010: fe02 8fbf f4f0 19bf 1345 213e 7b1c babd
00000020: 6f0e 953e 6655 39be b105 cdbe 50e0 48bf
00000030: a226 4f3d 033b 2fbf 8095 d53e 346f 40bf
00000040: 46e1 023e 84fb d93d 9bf6 c83e 7875 1b3f
00000050: 32b5 c6bd da09 52bf b897 53bf 11f9 12bb
00000060: 3d13 763e 8d8c 953c 5a2a fabd 2e9c 0c3e
00000070: 1cca c43e 0f1c 8dbe 694a 33be 6edf 2d3f
00000080: 3182 593f f8c6 8dbe 6338 35bf 4715 533f
00000090: 2c7a bf3e 3859 1ebf efc2 2c3f dfda 6e3f
000000a0: 5674 42bf 983c e3bd 8bc2 2a3e 143f 163f
000000b0: f5cd 6e3e e2a4 55bb 2b69 a8bd 2a8b 313e
000000c0: 07b3 1fbf 6ebd 033e b456 503e c01d 2f3f
000000d0: cf34 5c3e 6a22 203f d017 213f d42d 91bf
000000e0: a842 03bf 5e82 17bf 0694 64be f93e 77bd
000000f0: dae9 543f f118 00bf 8681 33be 811c ab3e
00000100: bfb0 633c b098 753e dd5e 1e3e ce89 00be
00000110: d570 cbbd 2a30 773f f019 0fbe fdb2 aa3e
00000120: bef2 643e 1582 d9be 74fe 17be f8a8 b03e
00000130: ba67 3ebf 2f46 1a3f c3ac c63d 56cc 783f
0.17462222 0.5606289 -0.022252921 0.48699626 -1.1172788 -0.6013329 0.15749006 -0.090874635
0.29112574 -0.18098983 -0.40043405 -0.78467274 0.050573952 -0.6844942 0.41715622 -0.7516968
0.12781247 0.10643676 0.39250645 0.6072612 -0.09702529 -0.8204628 -0.8265338 -0.0022426287
0.24030776 0.018255496 -0.12215109 0.13731453 0.38435447 -0.2756047 -0.17508854 0.6791905
0.8496428 -0.27690864 -0.70789164 0.8245434 0.37397897 -0.61854887 0.67484945 0.9330272
-0.75958765 -0.11095542 0.16675775 0.5869 0.23320754 -0.0032599499 -0.08223184 0.17338243
-0.6238255 0.1286523 0.20345575 0.6840477 0.2150452 0.6255251 0.6292696 -1.1342111
-0.51273584 -0.591833 -0.22322091 -0.06036279 0.8316933 -0.5003806 -0.17529878 0.33420184
0.01389712 0.23984027 0.15465875 -0.12552568 -0.099336304 0.9655787 -0.13974738 0.33339682
0.22358224 -0.42482057 -0.1484316 0.34503913 -0.74377024 0.6026334 0.097009204 0.9718679

sequential_1/dense_5/MatMul f4 [1, 8]
00000000: bd13 413f 71df ad3d 36f8 c93e a706 363f
00000010: 8450 443f 8872 6ebf 4398 f03e 0827 9e3f
0.75420743 0.08489884 0.39447182 0.711039 0.7668536 -0.9314351 0.46991166 1.2355661
