assets/bot.tflite (tflite, 3176 bytes, 3 tensors)

FullyConnected_2/b f4 [12]
00000000: a2a7 573f bfcb cfbe 55bb b8be 0e16 69bf
00000010: f142 403f 394b 313e 10ca b53e 9c86 bf3e
00000020: 086f 803e 350b cbbd 023c 263f ada8 47bf
0.8424016 -0.40585133 -0.36080423 -0.9104928 0.75102144 0.17313851 0.35505724 0.37407386
0.2508471 -0.09914247 0.64935315 -0.77991754

FullyConnected_1/b f4 [8]
00000000: ab8d 0c3f c603 a1bd 97c0 093f c477 143f
00000010: bda1 f1be 1a53 efbd 340e f73d a825 58bd
0.5490367 -0.07862048 0.53809494 0.5799525 -0.4719371 -0.11685772 0.12063256 -0.052770287

FullyConnected/b f4 [8]
00000000: 4db1 c33d d3dd d7bd e7a5 f2bd bfb8 4ebe
00000010: 5755 26be ffcd b43e dd3b e73d 91d8 8fbe
0.09555302 -0.105403565 -0.118480496 -0.20187663 -0.16243492 0.35313413 0.11290715 -0.28094915
