assets/model.tflite (tflite, 3176 bytes, 3 tensors)

FullyConnected_2/b f4 [12]
000000 05 2d 18 3f b6 22 a2 be 5a ec 33 be 46 0c 9d be
       0.59443694 -0.31667107 -0.1757063 -0.30673426
000010 0b 11 e0 3e 41 76 a2 3e 09 ec be be 2c 05 ef 3e
       0.43763003 0.31730846 -0.37289456 0.46683633
000020 9a 82 92 be 32 34 2c bf e7 19 92 bc 40 0e 00 bf
       -0.28615266 -0.67267144 -0.017834617 -0.50021744

FullyConnected_1/b f4 [8]
000000 23 c1 95 be b0 d3 79 be 26 58 4a bd 61 90 18 3f
       -0.29248914 -0.24397159 -0.04940047 0.59595305
000010 5a 6f 23 bf a9 34 d7 3d 39 89 dc be 56 72 bf be
       -0.63841784 0.10508091 -0.43073443 -0.3739192

FullyConnected/b f4 [8]
000000 71 51 97 3e 04 ab f2 3d 25 f7 27 be 36 55 04 3f
       0.29554322 0.11849025 -0.16402872 0.5169252
000010 eb 00 0a 3f 4a 96 28 3f 7d 45 db 3e eb fd 13 3e
       0.5390765 0.6585432 0.42826453 0.14452331
